…
/system/mainpage/mainpage.py
===== SYSTEM =====
PATH: /system/system.py
Model: "model"
__________________________________________________________________________________________________
Layer (type)                    Output Shape         Param #     Connected to                     
==================================================================================================
input_1 (InputLayer)            [(None, 64, 64, 19)] 0                                            
__________________________________________________________________________________________________
cct_tokenizer (CCTTokenizer)    (None, 256, 128)     84672       input_1[0][0]                    
__________________________________________________________________________________________________
layer_normalization (LayerNorma (None, 256, 128)     256         cct_tokenizer[0][0]              
__________________________________________________________________________________________________
multi_head_attention (MultiHead (None, 256, 128)     131968      layer_normalization[0][0]        
                                                                 layer_normalization[0][0]        
__________________________________________________________________________________________________
stochastic_depth (StochasticDep (None, 256, 128)     0           multi_head_attention[0][0]       
__________________________________________________________________________________________________
add (Add)                       (None, 256, 128)     0           stochastic_depth[0][0]           
                                                                 cct_tokenizer[0][0]              
__________________________________________________________________________________________________
layer_normalization_1 (LayerNor (None, 256, 128)     256         add[0][0]                        
__________________________________________________________________________________________________
dense (Dense)                   (None, 256, 128)     16512       layer_normalization_1[0][0]      
__________________________________________________________________________________________________
dropout (Dropout)               (None, 256, 128)     0           dense[0][0]                      
__________________________________________________________________________________________________
dense_1 (Dense)                 (None, 256, 128)     16512       dropout[0][0]                    
__________________________________________________________________________________________________
dropout_1 (Dropout)             (None, 256, 128)     0           dense_1[0][0]                    
__________________________________________________________________________________________________
stochastic_depth_1 (StochasticD (None, 256, 128)     0           dropout_1[0][0]                  
__________________________________________________________________________________________________
add_1 (Add)                     (None, 256, 128)     0           stochastic_depth_1[0][0]         
                                                                 add[0][0]                        
__________________________________________________________________________________________________
layer_normalization_2 (LayerNor (None, 256, 128)     256         add_1[0][0]                      
__________________________________________________________________________________________________
multi_head_attention_1 (MultiHe (None, 256, 128)     131968      layer_normalization_2[0][0]      
                                                                 layer_normalization_2[0][0]      
__________________________________________________________________________________________________
stochastic_depth_2 (StochasticD (None, 256, 128)     0           multi_head_attention_1[0][0]     
__________________________________________________________________________________________________
add_2 (Add)                     (None, 256, 128)     0           stochastic_depth_2[0][0]         
                                                                 add_1[0][0]                      
__________________________________________________________________________________________________
layer_normalization_3 (LayerNor (None, 256, 128)     256         add_2[0][0]                      
__________________________________________________________________________________________________
dense_2 (Dense)                 (None, 256, 128)     16512       layer_normalization_3[0][0]      
__________________________________________________________________________________________________
dropout_2 (Dropout)             (None, 256, 128)     0           dense_2[0][0]                    
__________________________________________________________________________________________________
dense_3 (Dense)                 (None, 256, 128)     16512       dropout_2[0][0]                  
__________________________________________________________________________________________________
dropout_3 (Dropout)             (None, 256, 128)     0           dense_3[0][0]                    
__________________________________________________________________________________________________
stochastic_depth_3 (StochasticD (None, 256, 128)     0           dropout_3[0][0]                  
__________________________________________________________________________________________________
add_3 (Add)                     (None, 256, 128)     0           stochastic_depth_3[0][0]         
                                                                 add_2[0][0]                      
__________________________________________________________________________________________________
layer_normalization_4 (LayerNor (None, 256, 128)     256         add_3[0][0]                      
__________________________________________________________________________________________________
dense_4 (Dense)                 (None, 256, 1)       129         layer_normalization_4[0][0]      
__________________________________________________________________________________________________
tf.nn.softmax (TFOpLambda)      (None, 256, 1)       0           dense_4[0][0]                    
__________________________________________________________________________________________________
tf.linalg.matmul (TFOpLambda)   (None, 1, 128)       0           tf.nn.softmax[0][0]              
                                                                 layer_normalization_4[0][0]      
__________________________________________________________________________________________________
tf.compat.v1.squeeze (TFOpLambd (None, 128)          0           tf.linalg.matmul[0][0]           
__________________________________________________________________________________________________
dense_5 (Dense)                 (None, 1)            129         tf.compat.v1.squeeze[0][0]       
==================================================================================================
Total params: 416,194
Trainable params: 416,194
Non-trainable params: 0
__________________________________________________________________________________________________
===== SYSTEM =====
PATH: /system/system.py
Model: "model_1"
__________________________________________________________________________________________________
Layer (type)                    Output Shape         Param #     Connected to                     
==================================================================================================
input_2 (InputLayer)            [(None, 64, 64, 19)] 0                                            
__________________________________________________________________________________________________
cct_tokenizer_1 (CCTTokenizer)  (None, 256, 128)     84672       input_2[0][0]                    
__________________________________________________________________________________________________
layer_normalization_5 (LayerNor (None, 256, 128)     256         cct_tokenizer_1[0][0]            
__________________________________________________________________________________________________
multi_head_attention_2 (MultiHe (None, 256, 128)     131968      layer_normalization_5[0][0]      
                                                                 layer_normalization_5[0][0]      
__________________________________________________________________________________________________
stochastic_depth_4 (StochasticD (None, 256, 128)     0           multi_head_attention_2[0][0]     
__________________________________________________________________________________________________
add_4 (Add)                     (None, 256, 128)     0           stochastic_depth_4[0][0]         
                                                                 cct_tokenizer_1[0][0]            
__________________________________________________________________________________________________
layer_normalization_6 (LayerNor (None, 256, 128)     256         add_4[0][0]                      
__________________________________________________________________________________________________
dense_6 (Dense)                 (None, 256, 128)     16512       layer_normalization_6[0][0]      
__________________________________________________________________________________________________
dropout_4 (Dropout)             (None, 256, 128)     0           dense_6[0][0]                    
__________________________________________________________________________________________________
dense_7 (Dense)                 (None, 256, 128)     16512       dropout_4[0][0]                  
__________________________________________________________________________________________________
dropout_5 (Dropout)             (None, 256, 128)     0           dense_7[0][0]                    
__________________________________________________________________________________________________
stochastic_depth_5 (StochasticD (None, 256, 128)     0           dropout_5[0][0]                  
__________________________________________________________________________________________________
add_5 (Add)                     (None, 256, 128)     0           stochastic_depth_5[0][0]         
                                                                 add_4[0][0]                      
__________________________________________________________________________________________________
layer_normalization_7 (LayerNor (None, 256, 128)     256         add_5[0][0]                      
__________________________________________________________________________________________________
multi_head_attention_3 (MultiHe (None, 256, 128)     131968      layer_normalization_7[0][0]      
                                                                 layer_normalization_7[0][0]      
__________________________________________________________________________________________________
stochastic_depth_6 (StochasticD (None, 256, 128)     0           multi_head_attention_3[0][0]     
__________________________________________________________________________________________________
add_6 (Add)                     (None, 256, 128)     0           stochastic_depth_6[0][0]         
                                                                 add_5[0][0]                      
__________________________________________________________________________________________________
layer_normalization_8 (LayerNor (None, 256, 128)     256         add_6[0][0]                      
__________________________________________________________________________________________________
dense_8 (Dense)                 (None, 256, 128)     16512       layer_normalization_8[0][0]      
__________________________________________________________________________________________________
dropout_6 (Dropout)             (None, 256, 128)     0           dense_8[0][0]                    
__________________________________________________________________________________________________
dense_9 (Dense)                 (None, 256, 128)     16512       dropout_6[0][0]                  
__________________________________________________________________________________________________
dropout_7 (Dropout)             (None, 256, 128)     0           dense_9[0][0]                    
__________________________________________________________________________________________________
stochastic_depth_7 (StochasticD (None, 256, 128)     0           dropout_7[0][0]                  
__________________________________________________________________________________________________
add_7 (Add)                     (None, 256, 128)     0           stochastic_depth_7[0][0]         
                                                                 add_6[0][0]                      
__________________________________________________________________________________________________
layer_normalization_9 (LayerNor (None, 256, 128)     256         add_7[0][0]                      
__________________________________________________________________________________________________
dense_10 (Dense)                (None, 256, 1)       129         layer_normalization_9[0][0]      
__________________________________________________________________________________________________
tf.nn.softmax_1 (TFOpLambda)    (None, 256, 1)       0           dense_10[0][0]                   
__________________________________________________________________________________________________
tf.linalg.matmul_1 (TFOpLambda) (None, 1, 128)       0           tf.nn.softmax_1[0][0]            
                                                                 layer_normalization_9[0][0]      
__________________________________________________________________________________________________
tf.compat.v1.squeeze_1 (TFOpLam (None, 128)          0           tf.linalg.matmul_1[0][0]         
__________________________________________________________________________________________________
dense_11 (Dense)                (None, 1)            129         tf.compat.v1.squeeze_1[0][0]     
==================================================================================================
Total params: 416,194
Trainable params: 416,194
Non-trainable params: 0
__________________________________________________________________________________________________
===== SYSTEM =====
2021-12-04 02:32:10.345724
AUTH
===== SYSTEM =====
2021-12-04 02:32:24.304116
…
PATH: /system/system.py
===== SYSTEM =====
PATH: /system/system.py
Model: "model_2"
__________________________________________________________________________________________________
Layer (type)                    Output Shape         Param #     Connected to                     
==================================================================================================
input_3 (InputLayer)            [(None, 64, 64, 19)] 0                                            
__________________________________________________________________________________________________
cct_tokenizer_2 (CCTTokenizer)  (None, 256, 128)     84672       input_3[0][0]                    
__________________________________________________________________________________________________
layer_normalization_10 (LayerNo (None, 256, 128)     256         cct_tokenizer_2[0][0]            
__________________________________________________________________________________________________
multi_head_attention_4 (MultiHe (None, 256, 128)     131968      layer_normalization_10[0][0]     
                                                                 layer_normalization_10[0][0]     
__________________________________________________________________________________________________
stochastic_depth_8 (StochasticD (None, 256, 128)     0           multi_head_attention_4[0][0]     
__________________________________________________________________________________________________
add_8 (Add)                     (None, 256, 128)     0           stochastic_depth_8[0][0]         
                                                                 cct_tokenizer_2[0][0]            
__________________________________________________________________________________________________
layer_normalization_11 (LayerNo (None, 256, 128)     256         add_8[0][0]                      
__________________________________________________________________________________________________
dense_12 (Dense)                (None, 256, 128)     16512       layer_normalization_11[0][0]     
__________________________________________________________________________________________________
dropout_8 (Dropout)             (None, 256, 128)     0           dense_12[0][0]                   
__________________________________________________________________________________________________
dense_13 (Dense)                (None, 256, 128)     16512       dropout_8[0][0]                  
__________________________________________________________________________________________________
dropout_9 (Dropout)             (None, 256, 128)     0           dense_13[0][0]                   
__________________________________________________________________________________________________
stochastic_depth_9 (StochasticD (None, 256, 128)     0           dropout_9[0][0]                  
__________________________________________________________________________________________________
add_9 (Add)                     (None, 256, 128)     0           stochastic_depth_9[0][0]         
                                                                 add_8[0][0]                      
__________________________________________________________________________________________________
layer_normalization_12 (LayerNo (None, 256, 128)     256         add_9[0][0]                      
__________________________________________________________________________________________________
multi_head_attention_5 (MultiHe (None, 256, 128)     131968      layer_normalization_12[0][0]     
                                                                 layer_normalization_12[0][0]     
__________________________________________________________________________________________________
stochastic_depth_10 (Stochastic (None, 256, 128)     0           multi_head_attention_5[0][0]     
__________________________________________________________________________________________________
add_10 (Add)                    (None, 256, 128)     0           stochastic_depth_10[0][0]        
                                                                 add_9[0][0]                      
__________________________________________________________________________________________________
layer_normalization_13 (LayerNo (None, 256, 128)     256         add_10[0][0]                     
__________________________________________________________________________________________________
dense_14 (Dense)                (None, 256, 128)     16512       layer_normalization_13[0][0]     
__________________________________________________________________________________________________
dropout_10 (Dropout)            (None, 256, 128)     0           dense_14[0][0]                   
__________________________________________________________________________________________________
dense_15 (Dense)                (None, 256, 128)     16512       dropout_10[0][0]                 
__________________________________________________________________________________________________
dropout_11 (Dropout)            (None, 256, 128)     0           dense_15[0][0]                   
__________________________________________________________________________________________________
stochastic_depth_11 (Stochastic (None, 256, 128)     0           dropout_11[0][0]                 
__________________________________________________________________________________________________
add_11 (Add)                    (None, 256, 128)     0           stochastic_depth_11[0][0]        
                                                                 add_10[0][0]                     
__________________________________________________________________________________________________
layer_normalization_14 (LayerNo (None, 256, 128)     256         add_11[0][0]                     
__________________________________________________________________________________________________
dense_16 (Dense)                (None, 256, 1)       129         layer_normalization_14[0][0]     
__________________________________________________________________________________________________
tf.nn.softmax_2 (TFOpLambda)    (None, 256, 1)       0           dense_16[0][0]                   
__________________________________________________________________________________________________
tf.linalg.matmul_2 (TFOpLambda) (None, 1, 128)       0           tf.nn.softmax_2[0][0]            
                                                                 layer_normalization_14[0][0]     
__________________________________________________________________________________________________
tf.compat.v1.squeeze_2 (TFOpLam (None, 128)          0           tf.linalg.matmul_2[0][0]         
__________________________________________________________________________________________________
dense_17 (Dense)                (None, 1)            129         tf.compat.v1.squeeze_2[0][0]     
==================================================================================================
Total params: 416,194
Trainable params: 416,194
Non-trainable params: 0
__________________________________________________________________________________________________
===== SYSTEM =====
PATH: /system/system.py
2021-12-04 02:33:28.985020
/system/mainpage/mainpage.py
…
PATH: /system/system.py
===== SYSTEM =====
PATH: /system/system.py
Model: "model_3"
__________________________________________________________________________________________________
Layer (type)                    Output Shape         Param #     Connected to                     
==================================================================================================
input_4 (InputLayer)            [(None, 64, 64, 19)] 0                                            
__________________________________________________________________________________________________
cct_tokenizer_3 (CCTTokenizer)  (None, 256, 128)     84672       input_4[0][0]                    
__________________________________________________________________________________________________
layer_normalization_15 (LayerNo (None, 256, 128)     256         cct_tokenizer_3[0][0]            
__________________________________________________________________________________________________
multi_head_attention_6 (MultiHe (None, 256, 128)     131968      layer_normalization_15[0][0]     
                                                                 layer_normalization_15[0][0]     
__________________________________________________________________________________________________
stochastic_depth_12 (Stochastic (None, 256, 128)     0           multi_head_attention_6[0][0]     
__________________________________________________________________________________________________
add_12 (Add)                    (None, 256, 128)     0           stochastic_depth_12[0][0]        
                                                                 cct_tokenizer_3[0][0]            
__________________________________________________________________________________________________
layer_normalization_16 (LayerNo (None, 256, 128)     256         add_12[0][0]                     /var/www/5za.ru/data/.local/lib/python3.7/site-packages/aiohttp/web_protocol.py:495: DeprecationWarning: returning HTTPException object is deprecated (#2415) and will be removed, please raise the exception instead
  DeprecationWarning,
/var/www/5za.ru/data/.local/lib/python3.7/site-packages/aiohttp/web_protocol.py:495: DeprecationWarning: returning HTTPException object is deprecated (#2415) and will be removed, please raise the exception instead
…
